…
  | Name  | Type          | Params
----------------------------------------
0 | model | OccamResNetV2 | 11.3 M
----------------------------------------
11.3 M    Trainable params
0         Non-trainable params
11.3 M    Total params
22.685    Total estimated model params size (MB)
/home/robik/anaconda3/envs/occamnets/lib/python3.8/site-packages/pytorch_lightning/trainer/connectors/data_connector.py:487: PossibleUserWarning: Your `val_dataloader`'s sampler has shuffling enabled, it is strongly recommended that you turn shuffling off for val/test/predict dataloaders.
  rank_zero_warn(
OccamResNetV2(
  (conv1): Conv2d(3, 58, kernel_size=(7, 7), stride=(2, 2), padding=(3, 3), bias=False)
  (bn1): BatchNorm2d(58, eps=1e-05, momentum=0.1, affine=True, track_running_stats=True)
  (relu): ReLU(inplace=True)
  (maxpool): MaxPool2d(kernel_size=3, stride=2, padding=1, dilation=1, ceil_mode=False)
  (layer1): Sequential(
    (0): BasicBlock(
      (conv1): Conv2d(58, 58, kernel_size=(3, 3), stride=(1, 1), padding=(1, 1), bias=False)
      (bn1): BatchNorm2d(58, eps=1e-05, momentum=0.1, affine=True, track_running_stats=True)
      (relu): ReLU(inplace=True)
      (conv2): Conv2d(58, 58, kernel_size=(3, 3), stride=(1, 1), padding=(1, 1), bias=False)
      (bn2): BatchNorm2d(58, eps=1e-05, momentum=0.1, affine=True, track_running_stats=True)
    )
    (1): BasicBlock(
      (conv1): Conv2d(58, 58, kernel_size=(3, 3), stride=(1, 1), padding=(1, 1), bias=False)
      (bn1): BatchNorm2d(58, eps=1e-05, momentum=0.1, affine=True, track_running_stats=True)
      (relu): ReLU(inplace=True)
      (conv2): Conv2d(58, 58, kernel_size=(3, 3), stride=(1, 1), padding=(1, 1), bias=False)
      (bn2): BatchNorm2d(58, eps=1e-05, momentum=0.1, affine=True, track_running_stats=True)
    )
  )
  (layer2): Sequential(
    (0): BasicBlock(
      (conv1): Conv2d(58, 116, kernel_size=(3, 3), stride=(2, 2), padding=(1, 1), bias=False)
      (bn1): BatchNorm2d(116, eps=1e-05, momentum=0.1, affine=True, track_running_stats=True)
      (relu): ReLU(inplace=True)
      (conv2): Conv2d(116, 116, kernel_size=(3, 3), stride=(1, 1), padding=(1, 1), bias=False)
      (bn2): BatchNorm2d(116, eps=1e-05, momentum=0.1, affine=True, track_running_stats=True)
      (downsample): Sequential(
        (0): Conv2d(58, 116, kernel_size=(1, 1), stride=(2, 2), bias=False)
        (1): BatchNorm2d(116, eps=1e-05, momentum=0.1, affine=True, track_running_stats=True)
      )
    )
    (1): BasicBlock(
      (conv1): Conv2d(116, 116, kernel_size=(3, 3), stride=(1, 1), padding=(1, 1), bias=False)
      (bn1): BatchNorm2d(116, eps=1e-05, momentum=0.1, affine=True, track_running_stats=True)
      (relu): ReLU(inplace=True)
      (conv2): Conv2d(116, 116, kernel_size=(3, 3), stride=(1, 1), padding=(1, 1), bias=False)
      (bn2): BatchNorm2d(116, eps=1e-05, momentum=0.1, affine=True, track_running_stats=True)
    )
  )
  (layer3): Sequential(
    (0): BasicBlock(
      (conv1): Conv2d(116, 232, kernel_size=(3, 3), stride=(2, 2), padding=(1, 1), bias=False)
      (bn1): BatchNorm2d(232, eps=1e-05, momentum=0.1, affine=True, track_running_stats=True)
      (relu): ReLU(inplace=True)
      (conv2): Conv2d(232, 232, kernel_size=(3, 3), stride=(1, 1), padding=(1, 1), bias=False)
      (bn2): BatchNorm2d(232, eps=1e-05, momentum=0.1, affine=True, track_running_stats=True)
      (downsample): Sequential(
        (0): Conv2d(116, 232, kernel_size=(1, 1), stride=(2, 2), bias=False)
        (1): BatchNorm2d(232, eps=1e-05, momentum=0.1, affine=True, track_running_stats=True)
      )
    )
    (1): BasicBlock(
      (conv1): Conv2d(232, 232, kernel_size=(3, 3), stride=(1, 1), padding=(1, 1), bias=False)
      (bn1): BatchNorm2d(232, eps=1e-05, momentum=0.1, affine=True, track_running_stats=True)
      (relu): ReLU(inplace=True)
      (conv2): Conv2d(232, 232, kernel_size=(3, 3), stride=(1, 1), padding=(1, 1), bias=False)
      (bn2): BatchNorm2d(232, eps=1e-05, momentum=0.1, affine=True, track_running_stats=True)
    )
  )
  (layer4): Sequential(
    (0): BasicBlock(
      (conv1): Conv2d(232, 464, kernel_size=(3, 3), stride=(2, 2), padding=(1, 1), bias=False)
      (bn1): BatchNorm2d(464, eps=1e-05, momentum=0.1, affine=True, track_running_stats=True)
      (relu): ReLU(inplace=True)
      (conv2): Conv2d(464, 464, kernel_size=(3, 3), stride=(1, 1), padding=(1, 1), bias=False)
      (bn2): BatchNorm2d(464, eps=1e-05, momentum=0.1, affine=True, track_running_stats=True)
      (downsample): Sequential(
        (0): Conv2d(232, 464, kernel_size=(1, 1), stride=(2, 2), bias=False)
        (1): BatchNorm2d(464, eps=1e-05, momentum=0.1, affine=True, track_running_stats=True)
      )
    )
    (1): BasicBlock(
      (conv1): Conv2d(464, 464, kernel_size=(3, 3), stride=(1, 1), padding=(1, 1), bias=False)
      (bn1): BatchNorm2d(464, eps=1e-05, momentum=0.1, affine=True, track_running_stats=True)
      (relu): ReLU(inplace=True)
      (conv2): Conv2d(464, 464, kernel_size=(3, 3), stride=(1, 1), padding=(1, 1), bias=False)
      (bn2): BatchNorm2d(464, eps=1e-05, momentum=0.1, affine=True, track_running_stats=True)
    )
  )
  (avgpool): AdaptiveAvgPool2d(output_size=(1, 1))
  (multi_exit): MultiExitModule(
    (exits): ModuleList(
      (0): ExitModule(
        (convs): Conv2(
          (conv1): Conv2d(58, 14, kernel_size=(3, 3), stride=(1, 1), padding=(1, 1))
          (norm1): BatchNorm2d(14, eps=1e-05, momentum=0.1, affine=True, track_running_stats=True)
          (non_linear1): ReLU()
          (conv2): Conv2d(14, 58, kernel_size=(3, 3), stride=(1, 1), padding=(1, 1))
        )
        (non_linearity): ReLU()
        (cam): Conv2d(58, 1000, kernel_size=(1, 1), stride=(1, 1))
      )
      (1): ExitModule(
        (convs): Conv2(
          (conv1): Conv2d(116, 29, kernel_size=(3, 3), stride=(1, 1), padding=(1, 1))
          (norm1): BatchNorm2d(29, eps=1e-05, momentum=0.1, affine=True, track_running_stats=True)
          (non_linear1): ReLU()
          (conv2): Conv2d(29, 116, kernel_size=(3, 3), stride=(1, 1), padding=(1, 1))
        )
        (non_linearity): ReLU()
        (cam): Conv2d(116, 1000, kernel_size=(1, 1), stride=(1, 1))
      )
      (2): ExitModule(
        (convs): Conv2(
          (conv1): Conv2d(232, 58, kernel_size=(3, 3), stride=(1, 1), padding=(1, 1))
          (norm1): BatchNorm2d(58, eps=1e-05, momentum=0.1, affine=True, track_running_stats=True)
          (non_linear1): ReLU()
          (conv2): Conv2d(58, 232, kernel_size=(3, 3), stride=(1, 1), padding=(1, 1))
        )
        (non_linearity): ReLU()
        (cam): Conv2d(232, 1000, kernel_size=(1, 1), stride=(1, 1))
      )
      (3): ExitModule(
        (convs): Conv2(
          (conv1): Conv2d(464, 116, kernel_size=(3, 3), stride=(1, 1), padding=(1, 1))
          (norm1): BatchNorm2d(116, eps=1e-05, momentum=0.1, affine=True, track_running_stats=True)
          (non_linear1): ReLU()
          (conv2): Conv2d(116, 464, kernel_size=(3, 3), stride=(1, 1), padding=(1, 1))
        )
        (non_linearity): ReLU()
        (cam): Conv2d(464, 1000, kernel_size=(1, 1), stride=(1, 1))
      )
    )
  )
)
Training: 0it [00:00, ?it/s]Training:   0%|          | 0/25 [00:00<?, ?it/s]Epoch 0:   0%|          | 0/25 [00:00<?, ?it/s] Epoch 0:   4%|▍         | 1/25 [00:13<05:30, 13.77s/it]Epoch 0:   4%|▍         | 1/25 [00:13<05:30, 13.77s/it]Epoch 0:   4%|▍         | 1/25 [00:13<05:30, 13.77s/it, loss=27.7, v_num=0]Epoch 0:   8%|▊   
…
